data.pth (torch, 2751 bytes, 5 tensors)

l1.weight f4 [8, 8]
-0.13018799 0.23451647 0.035007775 -0.13652211 -0.22427543 0.037935942 0.21032098 0.2120162
0.114476144 -0.27526996 -0.28243652 -0.287116 -0.017644048 0.11770737 0.1735299 -0.27579886
0.184773 -0.0073114634 -0.23528609 0.07424238 -0.044584364 0.29615316 0.12402612 0.06063515
0.040313423 -0.04638976 0.0149695575 0.29148278 0.23872581 0.06642574 -0.16549718 0.051332742
0.1727728 -0.20317331 -0.21427765 -0.3010247 0.2477487 0.057982206 0.13989419 0.34730497
-0.14572863 -0.16432217 -0.20547469 -0.00033301115 0.28091082 0.24544564 -0.20729294 0.037007093
0.18503544 0.3422657 -0.12836614 -0.033858806 -0.14760074 -0.30273652 -0.21908876 0.1023806
-0.05348903 0.15201733 -0.2728809 0.2770706 -0.052526057 0.1298882 -0.34171143 0.31775638
00000000: 0050 05be 1625 703e 5064 0f3d 74cc 0bbe
00000010: 75a8 65be b862 1b3d 625e 573e c61a 593e
00000020: 7872 ea3d 2ff0 8cbe 859b 90be de00 93be
00000030: 408a 90bc 9010 f13d d2b1 313e 8235 8dbe
00000040: 2235 3d3e 0095 efbb d6ee 70be 640c 983d
00000050: 189e 36bd 63a1 973e 6801 fe3d 905c 783d
00000060: b01f 253d 3003 3ebd e042 753c 3b3d 953e
00000070: 8a74 743e 380a 883d 1878 29be 4842 523d
00000080: 5aeb 303e aa0c 50be 9a6b 5bbe e91f 9abe
00000090: d6b1 7d3e c07e 6d3d 6c40 0f3e f5d1 b13e
000000a0: e339 15be 1244 28be f567 52be 0098 aeb9
000000b0: 8bd3 8f3e 1a56 7b3e 9a44 54be c094 173d
000000c0: ee79 3d3e 733d af3e 6a72 03be 88af 0abd
000000d0: a624 17be 4800 9bbe ce58 60be ecac d13d
000000e0: 5017 5bbd 6eaa 1b3e 0cb7 8bbe 33dc 8d3e
000000f0: 9025 57bd 6a01 053e cdf4 aebe f7b0 a23e

l1.bias f4 [8]
-0.030154586 -0.2766692 -0.1197539 0.29845318 -0.28468645 -0.20276701 -0.29103136 -0.037130624
00000000: c006 f7bc 96a7 8dbe 8841 f5bd dbce 983e
00000010: 6cc2 91be 28a2 4fbe 1002 95be 4816 18bd

l2.weight f4 [8, 8]
0.06950563 -0.18714668 0.20804217 0.29112962 -0.15113126 0.12535462 -0.26954675 -0.14137506
-0.10710664 -0.22768953 0.021459997 -0.0024476647 -0.097973734 0.21246275 0.26337126 -0.1444864
-0.15299252 -0.03540361 -0.0144768655 0.26888356 -0.34585 0.25499806 0.3475701 0.024855554
-0.3469121 0.29482868 0.005622387 -0.017586142 -0.32593933 0.33757463 0.23830238 -0.18655649
-0.17579122 -0.117158085 -0.31171945 -0.1808664 -0.26576984 0.11643505 0.05912003 0.19297364
-0.274988 0.14914736 -0.19589278 0.11511999 0.021625012 0.24265781 0.32649162 -0.31304294
-0.25412315 0.35180178 0.25798997 -0.1460605 0.017705858 -0.25365365 -0.22509232 -0.031239212
-0.05974713 -0.007583022 -0.105800435 0.25619474 0.18868956 0.021060318 0.08499056 0.16621134
00000000: f858 8e3d 61a3 3fbe 0209 553e f10e 953e
00000010: 27c2 1abe f65c 003e 0802 8abe a0c4 10be
00000020: ba5a dbbd 7227 69be e0cc af3c 0069 20bb
00000030: 74a6 c8bd d68f 593e 99d8 863e 3ef4 13be
00000040: 12aa 1cbe 6003 11bd 6030 6dbc 1bab 893e
00000050: 4013 b1be 1b8f 823e b5f4 b13e e09d cb3c
00000060: 769e b1be c9f3 963e 003c b83b d010 90bc
00000070: 85e1 a6be 95d6 ac3e 8a05 743e aa08 3fbe
00000080: 9d02 34be 94f0 efbd b199 9fbe 0b35 39be
00000090: fc12 88be 8075 ee3d d827 723d e29a 453e
000000a0: 3acb 8cbe 16ba 183e 1e98 48be 08c4 eb3d
000000b0: f026 b13c 4a7b 783e e929 a73e 2a47 a0be
000000c0: 6e1c 82be 5d1f b43e 4317 843e e290 15be
000000d0: e00b 913c e4de 81be 9a7e 66be 60e9 ffbc
000000e0: 68b9 74bd 007b f8bb e6ad d8bd f52b 833e
000000f0: d637 413e b086 ac3c 880f ae3d 4e33 2a3e

l2.bias f4 [8]
-0.06780833 0.21040758 0.11401126 0.1416814 -0.22425191 0.20616528 0.32675228 -0.10808079
00000000: 18df 8abd 1675 573e bc7e e93d ee14 113e
00000010: 4ba2 65be fe1c 533e 134c a73e 7659 ddbd

l3.weight f4 [1, 8]
-0.015740424 -0.045755506 -0.21991318 0.13674101 0.15460357 -0.22257966 0.021701485 0.30913422
00000000: 10f2 80bc 206a 3bbd ec30 61be d605 0c3e
00000010: 6650 1e3e eceb 63be 50c7 b13c d746 9e3e
